…
 se definen los input shape y el numero de clases\ninput_shape = (dim_imagen[0], dim_imagen[1], n_canales)\nnum_classes = 10\n\n# Crear el modelo cnn\ncnn_keras = cnn_model(input_shape, num_classes)\n\n# Visualizar el resumen del modelo\ncnn_keras.summary()\n\nModel: \"cnn_keras\"\n\n\n\n┏━━━━━━━━━━━━━━━━━━━━━━━━━━━━━━━━━━━━━━┳━━━━━━━━━━━━━━━━━━━━━━━━━━━━━┳━━━━━━━━━━━━━━━━━┓\n┃ Layer (type)                         ┃ Output Shape                ┃         Param # ┃\n┡━━━━━━━━━━━━━━━━━━━━━━━━━━━━━━━━━━━━━━╇━━━━━━━━━━━━━━━━━━━━━━━━━━━━━╇━━━━━━━━━━━━━━━━━┩\n│ input_layer_4 (InputLayer)           │ (None, 28, 28, 1)           │               0 │\n├──────────────────────────────────────┼─────────────────────────────┼─────────────────┤\n│ conv2d_8 (Conv2D)                    │ (None, 26, 26, 32)          │             320 │\n├──────────────────────────────────────┼─────────────────────────────┼─────────────────┤\n│ max_pooling2d_8 (MaxPooling2D)       │ (None, 13, 13, 32)          │               0 │\n├──────────────────────────────────────┼─────────────────────────────┼─────────────────┤\n│ conv2d_9 (Conv2D)                    │ (None, 11, 11, 64)          │          18,496 │\n├──────────────────────────────────────┼─────────────────────────────┼─────────────────┤\n│ max_pooling2d_9 (MaxPooling2D)       │ (None, 5, 5, 64)            │               0 │\n├──────────────────────────────────────┼─────────────────────────────┼─────────────────┤\n│ flatten_4 (Flatten)                  │ (None, 1600)                │               0 │\n├──────────────────────────────────────┼─────────────────────────────┼─────────────────┤\n│ dropout_4 (Dropout)                  │ (None, 1600)                │               0 │\n├──────────────────────────────────────┼─────────────────────────────┼─────────────────┤\n│ dense_4 (Dense)                      │ (None, 10)                  │          16,010 │\n└──────────────────────────────────────┴─────────────────────────────┴─────────────────┘\n\n\n\n Total params: 34,826 (136.04 KB)\n\n\n\n Trainable params: 34,826 (136.04 KB)\n\n\n\n Non-trainable params: 0 (0.00 B)\n\n\n\n\n# tambien es posible visualizar nuestra red en formato de grafo\ntf.keras.utils.plot_model(cnn_keras, rankdir='LR',show_dtype=True)\n\n\n\n\n\n\n\n\n\n# Compilar el modelo
…
n las que definen el tipo de problema a solucionar\n# Como nuestro problema es de 10 categorias (10 digitos), agregaremos nuestras propias capas superiores\nvgg16_base = VGG16(weights='imagenet', include_top=False, input_shape=(32, 32, 3))\nvgg16_base.summary()\n\nModel: \"vgg16\"\n\n\n\n┏━━━━━━━━━━━━━━━━━━━━━━━━━━━━━━━━━━━━━━┳━━━━━━━━━━━━━━━━━━━━━━━━━━━━━┳━━━━━━━━━━━━━━━━━┓\n┃ Layer (type)                         ┃ Output Shape                ┃         Param # ┃\n┡━━━━━━━━━━━━━━━━━━━━━━━━━━━━━━━━━━━━━━╇━━━━━━━━━━━━━━━━━━━━━━━━━━━━━╇━━━━━━━━━━━━━━━━━┩\n│ input_layer (InputLayer)             │ (None, 32, 32, 3)           │               0 │\n├──────────────────────────────────────┼─────────────────────────────┼─────────────────┤\n│ block1_conv1 (Conv2D)                │ (None, 32, 32, 64)          │           1,792 │\n├──────────────────────────────────────┼─────────────────────────────┼─────────────────┤\n│ block1_conv2 (Conv2D)                │ (None, 32, 32, 64)          │          36,928 │\n├──────────────────────────────────────┼─────────────────────────────┼─────────────────┤\n│ block1_pool (MaxPooling2D)           │ (None, 16, 16, 64)          │               0 │\n├──────────────────────────────────────┼─────────────────────────────┼─────────────────┤\n│ block2_conv1 (Conv2D)                │ (None, 16, 16, 128)         │          73,856 │\n├──────────────────────────────────────┼─────────────────────────────┼─────────────────┤\n│ block2_conv2 (Conv2D)                │ (None, 16, 16, 128)         │         147,584 │\n├──────────────────────────────────────┼─────────────────────────────┼─────────────────┤\n│ block2_pool (MaxPooling2D)           │ (None, 8, 8, 128)           │               0 │\n├──────────────────────────────────────┼─────────────────────────────┼─────────────────┤\n│ block3_conv1 (Conv2D)                │ (None, 8, 8, 256)           │         295,168 │\n├──────────────────────────────────────┼─────────────────────────────┼─────────────────┤\n│ block3_conv2 (Conv2D)                │ (None, 8, 8, 256)           │         590,080 │\n├──────────────────────────────────────┼─────────────────────────────┼─────────────────┤\n│ block3_conv3 (Conv2D)                │ (None, 8, 8, 256)           │         590,080 │\n├──────────────────────────────────────┼─────────────────────────────┼─────────────────┤\n│ block3_pool (MaxPooling2D)           │ (None, 4, 4, 256)           │               0 │\n├──────────────────────────────────────┼─────────────────────────────┼─────────────────┤\n│ block4_conv1 (Conv2D)                │ (None, 4, 4, 512)           │       1,180,160 │\n├──────────────────────────────────────┼─────────────────────────────┼─────────────────┤\n│ block4_conv2 (Conv2D)                │ (None, 4, 4, 512)           │       2,359,808 │\n├──────────────────────────────────────┼─────────────────────────────┼─────────────────┤\n│ block4_conv3 (Conv2D)                │ (None, 4, 4, 512)           │       2,359,808 │\n├──────────────────────────────────────┼─────────────────────────────┼─────────────────┤\n│ block4_pool (MaxPooling2D)           │ (None, 2, 2, 512)           │               0 │\n├──────────────────────────────────────┼─────────────────────────────┼─────────────────┤\n│ block5_conv1 (Conv2D)                │ (None, 2, 2, 512)           │       2,359,808 │\n├──────────────────────────────────────┼─────────────────────────────┼─────────────────┤\n│ block5_conv2 (Conv2D)                │ (None, 2, 2, 512)           │       2,359,808 │\n├──────────────────────────────────────┼─────────────────────────────┼─────────────────┤\n│ block5_conv3 (Conv2D)                │ (None, 2, 2, 512)           │       2,359,808 │\n├──────────────────────────────────────┼─────────────────────────────┼─────────────────┤\n│ block5_pool (MaxPooling2D)           │ (None, 1, 1, 512)           │               0 │\n└──────────────────────────────────────┴─────────────────────────────┴─────────────────┘\n\n\n\n Total params: 14,714,688 (56.13 MB)\n\n\n\n Trainable params: 14,714,688 (56.13 MB)\n\n\n\n Non-trainable params: 0 (0.00 B)\n\n\n\n\n# Ahora congelamos los pesos del modelo, pues solo queremos agrega una nueva capa\n# con 10 neuronas, donde cada una representará el digito que queremos predecir\nvg
…
